chatbot/data.pth (torch, 5610 bytes, 6 tensors)

l1.weight f4 [8, 57]
0	0x3f21fb7f	0.6327438
1	0x3f3b6dcc	0.7321441
2	0xbe9af15a	-0.30262262
3	0xbebc5877	-0.36786243
4	0xbe6051dd	-0.21906228
5	0xbef358e4	-0.47528756
6	0xbe1476ed	-0.14498492
7	0xbec4dd21	-0.38449958
8	0xbec701f6	-0.38868684
9	0xbe77dfb1	-0.24206425
10	0xbd9e4aaa	-0.07729085
11	0x3ecbe6d2	0.3982454
12	0x3e3e1771	0.1856363
13	0x3ed501c9	0.41602924
14	0x3f2a3e76	0.6650156
15	0x3d58fba5	0.052974362
16	0xbe63b750	-0.22237897
17	0xbee619fd	-0.44941702
18	0x3e8a7361	0.27041152
19	0xbecbdd5c	-0.3981732
20	0x3f106168	0.5639863
21	0xbeca5dac	-0.3952459
22	0xbed53400	-0.41641235
23	0xbd8ab5ce	-0.06772958
24	0x3e19e461	0.15028526
25	0xbe265361	-0.16242744
26	0x3eb78bdb	0.3584889
27	0x3f3b1f9a	0.73095095
28	0x3e733101	0.23749162
29	0x3f06b6c5	0.52622634
30	0xbdc82884	-0.09773353
31	0x3ecddac6	0.40205973
32	0x3e845acd	0.25850525
33	0xbec2d91a	-0.3805626
34	0x3f31199f	0.6917972
35	0x3e68b767	0.22726212
36	0x3e7c3853	0.24630861
37	0x3ed97c98	0.4247787
38	0xbe31d43e	-0.1736612
39	0xbe51a579	-0.20473279
40	0xbe2b67d6	-0.16738829
41	0x3e3dfdec	0.18553895
42	0xbe381af1	-0.17979027
43	0x3ec821a4	0.39088166
44	0x3e2f6ae0	0.17130613
45	0x3f1e241e	0.6177386
46	0x3de5db2d	0.11223445
47	0x3f2ac3a5	0.6670478
48	0x3f419246	0.7561382
49	0x3f02805d	0.50977117
50	0x3e6f0cb7	0.23344694
51	0x3f172447	0.5903973
52	0x3e6fc08e	0.23413298
53	0x3e57655d	0.21034761
54	0xbe414229	-0.18872894
55	0x3e38366f	0.17989515
56	0x3e3e324c	0.18573874
57	0x3ed64170	0.418468
58	0x3eddb98b	0.4330562
59	0xbe80a72c	-0.25127542
60	0x3ec4d763	0.38445577
61	0xbc37c867	-0.011217213
62	0x3f0472e5	0.51737815
63	0xbe599e76	-0.21251854
64	0xbeb00063	-0.34375295
65	0xbecc6557	-0.39921066
66	0xbeb6aac7	-0.35677168
67	0x3ecde32d	0.40212384
68	0x3ee740e0	0.45166683
69	0xbe2d9d86	-0.16954622
70	0x3f296922	0.66176045
71	0x3df8d81b	0.12150594
72	0x3ef66328	0.48122525
73	0x3ec6c535	0.38822332
74	0x3f09b5fd	0.5379332
75	0xbe631401	-0.221756
76	0x3f215f57	0.630361
77	0x3ecc077e	0.39849466
78	0x3f18bcb9	0.5966297
79	0x3f3e5ddb	0.7436196
80	0x3f597521	0.8494435
81	0x3e32222b	0.17395847
82	0x3ca660d4	0.020309843
83	0xbed8a535	-0.42313543
84	0x3ea8e822	0.32989603
85	0xbe67937f	-0.22614859
86	0x3ea8f6e2	0.33000857
87	0x3eea00ee	0.45703834
88	0x3f02dbdb	0.5111672
89	0x3df8a0d0	0.121400476
90	0xbe9240cd	-0.28565064
91	0x3df26ca0	0.11837125
92	0x3de62808	0.11238104
93	0xbf1503ce	-0.5820893
94	0xbe89babe	-0.26900285
95	0xbec152dd	-0.37758532
96	0xbe005c59	-0.12535228
97	0xbe741a37	-0.23838125
98	0xbf0019e3	-0.500395
99	0x3ebe83a2	0.37209803
100	0xbefc6e05	-0.49302688
101	0x3f060af7	0.5236048
102	0x3e44b5c6	0.19209966
103	0x3eb5f8c3	0.35541353
104	0x3df85ece	0.121274576
105	0x3f3e6c2c	0.7438381
106	0x3e4b539e	0.19856116
107	0x3ed06b9e	0.40707105
108	0xbf0f4a2a	-0.5597254
109	0x3efc9746	0.49334162
110	0xbec7064e	-0.38871998
111	0xbe93c5dd	-0.28861895
112	0x3e12d723	0.1433988
113	0xbc5eb7ff	-0.013593673
114	0x3edf8ce3	0.43662176
115	0x3f7ca139	0.98683506
116	0x3df5b994	0.11998287
117	0xbec51268	-0.38490605
118	0xbdaebf30	-0.0853256
119	0x3edbf83f	0.42962834
120	0x3ebe598a	0.37177688
121	0x3df36f73	0.118864916
122	0x3ea9291e	0.33039182
123	0x3e465515	0.19368394
124	0xbe3089bb	-0.1724004
125	0xbeaa6659	-0.3328121
126	0x3f2e9c2c	0.6820705
127	0xbc120a30	-0.008913562
128	0x3f0eeaea	0.558272
129	0xbea73a1d	-0.32661524
130	0xbebb8a3e	-0.36628908
131	0x3ed73b3f	0.4203739
132	0x3ee949ae	0.45564026
133	0xbf09e4fe	-0.5386504
134	0x3ee9f0cd	0.4569153
135	0xbf09e376	-0.538627
136	0xbf09e8f7	-0.538711
137	0xbf0f2930	-0.5592222
138	0x3b502492	0.003176008
139	0xbeba45e3	-0.36381444
140	0x3f39d3cc	0.725888
141	0x3f55182c	0.8324001
142	0x3f3399c7	0.7015652
143	0x3f0741b3	0.52834624
144	0xbb9eb949	-0.004843865
145	0xbe0535dc	-0.13008827
146	0x3eae5a7b	0.34053406
147	0x3e943683	0.2894784
148	0x3f761e25	0.96139747
149	0xbeb85066	-0.3599884
150	0xbed23fa6	-0.41064185
151	0x3f0a9c5b	0.5414483
152	0x3ea0da14	0.3141638
153	0x3e9c5178	0.30530906
154	0x3ee3e193	0.44508037
155	0x3e01a451	0.12660338
156	0x3de08b7e	0.10964106
157	0x3f202b97	0.6256651
158	0xbd9fe5ed	-0.07807527
159	0x3f09fdfe	0.53903186
160	0x3e281740	0.16415119
161	0x3f565cc7	0.83735317
162	0x3f1afdbf	0.60543436
163	0x3eaa5e2a	0.33274966
164	0x3e61abcc	0.22038192
165	0x3f3de61a	0.7417923
166	0xbe51663b	-0.20449154
167	0x3ebde67d	0.3708991
168	0x3ee230d6	0.44177884
169	0x3ed632f0	0.41835737
170	0xbece50bd	-0.40295973
171	0x3f324049	0.6962934
172	0xbb7e363d	-0.0038789653
173	0x3e0856e2	0.13314393
174	0x3d741eec	0.059599802
175	0x3eef4ed1	0.4673982
176	0xbe9dc197	-0.3081176
177	0xbe2a9986	-0.16660127
178	0x3dc15b32	0.09441222
179	0x3e406171	0.18787171
180	0x3db3423e	0.08752869
181	0x3eeaddae	0.45872253
182	0xbebe11cb	-0.3712295
183	0x3e74039d	0.23829503
184	0xbec2a847	-0.3801901
185	0xbe41dec0	-0.18932629
186	0xbe7b40cd	-0.24536438
187	0x3f0274b9	0.50959355
188	0xbe875f8a	-0.26440078
189	0x3e74bbd0	0.2389977
190	0x3f2d37d5	0.6766332
191	0x3ee019e7	0.43769762
192	0x3f28bbea	0.65911734
193	0x3f0cb8c9	0.5496946
194	0xbdcb7fc1	-0.099364765
195	0xbe4ebb01	-0.20188524
196	0x3f099ec0	0.5375786
197	0x3f08de35	0.5346406
198	0xbeefe686	-0.46855563
199	0x3e2143ff	0.15748595
200	0xbf0dad66	-0.5534271
201	0xbdc0e96a	-0.0941952
202	0xbe436ac1	-0.19083692
203	0x3f11e513	0.56990165
204	0x3e26c770	0.16287017
205	0x3c4ef445	0.012631481
206	0x3d80c9cf	0.06288492
207	0x3f84daa4	1.0379224
208	0x3eb3eaac	0.35139978
209	0x3e1a20fb	0.15051644
210	0x3ca91e50	0.020644337
211	0xbdf16b90	-0.11788094
212	0x3f72faad	0.9491375
213	0xbe4db9ee	-0.20090458
214	0x3ede96ce	0.4347443
215	0xbe463378	-0.19355571
216	0xbe6dcf88	-0.23223698
217	0x3dbca116	0.09210412
218	0xbe4b43df	-0.1985011
219	0x3f896e17	1.0736722
220	0x3f068df3	0.5256035
221	0x3ea6c269	0.32570198
222	0x3f46eaae	0.7770184
223	0xbe824211	-0.2544103
224	0x3e9f312b	0.310922
225	0xbd94845a	-0.072518066
226	0x3ec02bb4	0.37533343
227	0x3ea67be5	0.325164
228	0xbcb78488	-0.022402063
229	0xbe9008cb	-0.28131709
230	0x3edb216f	0.42798945
231	0xbe1819cd	-0.14853592
232	0x3e130ccb	0.14360349
233	0xbdb31962	-0.08745076
234	0x3ec5cb90	0.38631868
235	0x3ee7ec3b	0.45297417
236	0x3f0dce73	0.5539314
237	0x3f07e316	0.5308088
238	0xbded6b66	-0.1159275
239	0x3e40bb71	0.18821503
240	0x3ebe3e19	0.37156752
241	0x3ed821c3	0.42213258
242	0x3ce548d1	0.027988823
243	0x3e33e667	0.1756836
244	0xbd94a0dc	-0.07257244
245	0xbd2a2a5d	-0.041544307
246	0xbe4f5f71	-0.20251252
247	0xbe40e24e	-0.18836328
248	0x3c7b05a5	0.01532117
249	0xbe40ce03	-0.18828587
250	0xbe4109b6	-0.1885136
251	0xbd830045	-0.06396536
252	0x3f1097f7	0.5648188
253	0xbde0cb07	-0.109762244
254	0xbdecbb83	-0.115592025
255	0xbea33f4c	-0.3188423

l1.bias f4 [8]
0	0x3f19faae	0.6014813
1	0x3f8a80c3	1.0820545
2	0x3f09e572	0.5386573
3	0x3f45920a	0.7717596
4	0x3e40d3c2	0.18830779
5	0x3f27b0f9	0.65504414
6	0x3f0177b9	0.5057331
7	0x3f75395a	0.95790637

l2.weight f4 [8, 8]
0	0x3f8fa0af	1.1220912
1	0x3f84ae4f	1.0365695
2	0xbeba1cc7	-0.3635008
3	0x3dbd5114	0.0924398
4	0xbe84ae6a	-0.25914317
5	0xbf08ffce	-0.53515327
6	0xbf0382de	-0.5137156
7	0x3f9d0298	1.2266417
8	0x3f8ec117	1.1152676
9	0x3f4fd18d	0.81179124
10	0x3fb5be7b	1.4198755
11	0x3f2360c4	0.6381953
12	0xbf6bfb8e	-0.92180717
13	0x3f61ab13	0.88151664
14	0xbea18b5c	-0.31551635
15	0xbf895f50	-1.0732212
16	0x3e36ca7e	0.17850682
17	0xbea821ce	-0.3283829
18	0xbd848048	-0.0646978
19	0xbd8eb118	-0.06967372
20	0xbe444bf5	-0.191696
21	0xbc135680	-0.008992791
22	0xbb4e0300	-0.0031434894
23	0xbc0f3e40	-0.008742869
24	0xbec7051c	-0.38871086
25	0x3e725908	0.23666775
26	0x3f1a5d44	0.6029856
27	0xbf240db5	-0.64083415
28	0x3f4c522b	0.7981288
29	0x3f991ffd	1.1962887
30	0x3dfc2117	0.12310999
31	0x3f7f8cad	0.9982403
32	0x3f9844eb	1.1896032
33	0xbed7e9cc	-0.4217056
34	0x3f5e25b5	0.86776286
35	0x3f2b4fbe	0.6691855
36	0xbf597b88	-0.8495412
37	0xbe2b019d	-0.16699834
38	0x3f36313e	0.7116889
39	0xbf28c928	-0.6593194
40	0xbf3916e3	-0.7230055
41	0xbf1c7577	-0.6111674
42	0x3d4ce294	0.05002077
43	0x3fb46dd0	1.4096012
44	0x3e043f88	0.1291486
45	0xbf406207	-0.7514958
46	0x3fb34d37	1.4007939
47	0x3f47b704	0.78013635
48	0x3e3d5527	0.18489514
49	0xbf0fe6b8	-0.56211424
50	0x3ef351ab	0.47523245
51	0x3fb80014	1.4375024
52	0x3e5db416	0.21650729
53	0xbf17978b	-0.5921561
54	0x3f4e0bd6	0.8048681
55	0x3da30a48	0.07960945
56	0x3e7c70a6	0.24652347
57	0x3faf18b2	1.3679411
58	0xbf762251	-0.9614611
59	0x3f2f1daa	0.6840464
60	0xbf7b25a3	-0.98104304
61	0xbe274a2a	-0.16336885
62	0xbcfbc138	-0.030731782
63	0x3fa1459e	1.259937

l2.bias f4 [8]
0	0x3ee9ab3f	0.45638463
1	0x3f1a0d8c	0.6017692
2	0xbdf91908	-0.121629775
3	0x3e7e76bb	0.2484998
4	0x3d9d3f87	0.076781325
5	0x3f2a25b5	0.66463786
6	0x3e828ab9	0.25496462
7	0x3f86667e	1.0500028

l3.weight f4 [8, 8]
0	0x3f31da39	0.69473606
1	0xbfd18cdb	-1.6371111
2	0xbe6fac0e	-0.23405477
3	0x3f4070c9	0.75172096
4	0xbf141ff5	-0.5786126
5	0xbf8fe492	-1.1241629
6	0xbfcef1e5	-1.616757
7	0x3eb922e1	0.36159423
8	0x3c22f8f5	0.009947051
9	0x3f37e76f	0.71837515
10	0x3dda1078	0.106476724
11	0xbef78096	-0.4834029
12	0x3e76ca5c	0.24100631
13	0xbf80b829	-1.0056201
14	0xbfba448c	-1.4552169
15	0xbf31f513	-0.6951458
16	0xbde7bd31	-0.11315382
17	0x3ed8cf82	0.42345816
18	0xbe759c3c	-0.2398538
19	0x3f113691	0.56723887
20	0xbfc5b235	-1.544501
21	0xbf95ce88	-1.1703653
22	0xbfce5e34	-1.6122499
23	0x3ec27763	0.3798171
24	0x3e958779	0.2920492
25	0xbf26bb74	-0.6512978
26	0x3e102e34	0.14080125
27	0xbf226ab4	-0.63444066
28	0xbfcd7e33	-1.6054138
29	0x3f292bed	0.6608265
30	0xbf1df847	-0.61706966
31	0x3f2b16c2	0.668316
32	0xbf42178e	-0.7581719
33	0x3e61a3bc	0.22035116
34	0x3eadde6b	0.33958754
35	0xbf407cfc	-0.7519071
36	0x3f09600c	0.5366218
37	0x3e1b4d89	0.15166296
38	0x3e7dba87	0.24778186
39	0xbf9b305a	-1.2124131
40	0xbe96bf26	-0.2944271
41	0xbf5d1b1e	-0.863695
42	0xbe8e3315	-0.27773347
43	0xbf8c2af8	-1.0950613
44	0x3e866877	0.26251575
45	0x3f069ad8	0.5258002
46	0x3ed16105	0.40894333
47	0xbe319160	-0.17340612
48	0xbf020ff0	-0.5080557
49	0xbf5bf92d	-0.8592709
50	0x3e959621	0.29216102
51	0x3f66c50e	0.9014443
52	0xbf1c9ab0	-0.61173534
53	0x3f09ac78	0.5377879
54	0x3ea45e28	0.32103086
55	0xbf7f3cee	-0.99702346
56	0x3e643023	0.22283988
57	0x3ef09de0	0.4699545
58	0x3e27284a	0.16323963
59	0xbfdb419a	-1.7129395
60	0x3e8fab94	0.2806059
61	0xbf43f3df	-0.7654399
62	0x3e1dc12e	0.15405723
63	0x3bfb55cc	0.00767014

l3.bias f4 [8]
0	0xbe652388	-0.22376835
1	0xbde88c4e	-0.11354886
2	0x3f449a8b	0.76798314
3	0x3e30a213	0.17249326
4	0xbe057a4a	-0.13034931
5	0xbe114fb2	-0.14190558
6	0x3e4889f9	0.19583882
7	0xbe3b74cb	-0.18306272
